my_really_simple_iris_model.pt (torch, 3781 bytes, 6 tensors)

fc1.weight f4 [8, 4]
00000000: 80f0 86be baf8 8bbe 18df 993e 3c60 a9be
00000010: c0ae 70be 8242 8b3e 1a5e bebe 6419 7b3e
00000020: 3168 293e f4ab a7be c62d 503f f507 883f
00000030: cba6 403f 5f63 95be 14e7 823e a4a6 933f
00000040: cb8f 713f fe46 3b3f ba16 89bf c1f6 9dbf
00000050: 5409 e2be 7aa7 a93e 70b9 31bd 6661 b03e
00000060: 290a 493d feee 72be 9dbb e7be a91d 103e
00000070: 9842 a4be 4892 e3bd ec2f 983e de66 8bbe
-0.26355362 -0.273382 0.3005302 -0.33081234 -0.23504162 0.2719918 -0.3718117 0.24521405
0.16543652 -0.32748377 0.81319845 1.0627428 0.75254506 -0.29177377 0.25566924 1.153523
0.94360036 0.731552 -1.0710061 -1.2340928 -0.44147742 0.33135587 -0.043389738 0.3444931
0.049081955 -0.23723981 -0.45260325 0.14073814 -0.32082057 -0.11111885 0.2972406 -0.2722692

fc1.bias f4 [8]
00000000: 6061 c8bc 30fc 8abd c459 74bf 5db2 8dbb
00000010: e8fb b43f 2c3b 40be 85a2 9b3e cc85 26be
-0.024460495 -0.06786382 -0.9544947 -0.004324241 1.4139376 -0.18772572 0.3039743 -0.16261977

fc2.weight f4 [9, 8]
00000000: 3224 153e fecf 153e bc14 91be bafe ccbd
00000010: ad8a c33f a440 a7bd 018d 763e 7b24 59be
00000020: afc5 13bd 2730 9b3e 1e13 9dbe ec8e 5f3c
00000030: 7823 97bb cab6 9abe 7142 8cbd 4aed a5be
00000040: fa71 9c3d 91e2 733d 060c 703f 1aeb 8abb
00000050: 7a37 83bf f287 02be ec09 81be fad2 8c3e
00000060: 290a e83d 9d3b b4be 5013 cabe cd6c 6dbe
00000070: 66fd 5f3f d9ca d3bd 61f1 c53e a7be df3d
00000080: 3f18 a3be ad4c 983d ed90 083f 7c6c fb3e
00000090: 4878 c5bf cfe1 d3bc 4745 6f3e ea4d 003e
000000a0: 7f59 2a3e aa43 993e aa2f 363f 37f7 f43e
000000b0: 3f14 7abe 71a0 be3c 804c 423e 0dfc a6bd
000000c0: d294 3e3d 7cff a03b 0a74 d73e d14c 373f
000000d0: 1663 85be c7f6 99be 0373 ea3d 9aa1 efbd
000000e0: 0588 0d3d bd24 a4be 1da6 0f3e b545 78be
000000f0: aa37 24bd 6565 9b3e 9541 ad3d f4ee 963e
00000100: c23d 44be 2f66 a8be f7ec 90be 7b01 f8bd
00000110: c87a e1bd 928c c4bc 1e06 4f3e 6fde 9d3e
0.14564589 0.14630124 -0.28336132 -0.10009523 1.5276695 -0.08166626 0.24077226 -0.21205322
-0.036077198 0.30310175 -0.30678648 0.013644915 -0.0046123825 -0.30217582 -0.0684861 -0.324076
0.07638927 0.059542242 0.93768346 -0.004239452 -1.0251305 -0.12747172 -0.25202882 0.27504712
0.11330063 -0.3520173 -0.3946786 -0.23186035 0.8749603 -0.103414245 0.3866072 0.10925036
-0.31854436 0.074365 0.5334614 0.49106205 -1.5427332 -0.02586451 0.23366271 0.12529722
0.16635703 0.29934436 0.7116648 0.4784486 -0.24421786 0.023269864 0.18974495 -0.081535436
0.046528645 0.0049132686 0.42080718 0.7160159 -0.2605216 -0.3007109 0.11447718 -0.11700745
0.034553546 -0.3205928 0.14028211 -0.24245341 -0.040092148 0.30350795 0.084597744 0.29479182
-0.19164184 -0.3289046 -0.2830579 -0.121096574 -0.11009747 -0.02399281 0.20217177 0.30833766

fc2.bias f4 [9]
00000000: 299d 133f 3c08 52be bd10 03bf bfa2 8b3e
00000010: 0b96 48bf a360 b4be e5c0 16bd afde a0be
00000020: 555a 993e
0.5766168 -0.20510954 -0.51197416 0.27272603 -0.7835395 -0.35229978 -0.036805052 -0.31419894
0.2995173

out.weight f4 [3, 9]
00000000: 9e9e 2e3f 2bb0 d2bd b25d cabe 8a12 653f
00000010: 8257 42bd c810 08bf 1f8f 1abf 001c 953e
00000020: 96b8 90bd 3fde ed3e 3a1e 81be 8fd1 a8be
00000030: 8f32 42bf 24d9 bebf 8947 0a3f 07e7 2b3f
00000040: f6ea 053d 13f1 13be dafe ddbf 63e5 833e
00000050: 1d2b 9e3f db27 ebbe f51a c33f cce5 cc3e
00000060: 0eaa 343e a29e 9ebe 578b 95be
0.6821078 -0.102875076 -0.3952461 0.89481413 -0.047446735 -0.53150606 -0.60374635 0.29122925
-0.07066457 0.46458623 -0.25218374 -0.3297238 -0.75858396 -1.4910016 0.54015404 0.67149395
0.03269478 -0.14447431 -1.73434 0.25760946 1.2356907 -0.45928845 1.5242602 0.4001907
0.17642996 -0.30980402 -0.2920787

out.bias f4 [3]
00000000: 87e8 4b3f 471a 8d3f e1ac 8abf
0.79651684 1.1023644 -1.0834008
